 
Model(
  (embedding): ConvBNReLU1D(
    (act): ReLU(inplace=True)
    (net): Sequential(
      (0): Conv1d(3, 64, kernel_size=(1,), stride=(1,), bias=False)
      (1): BatchNorm1d(64, eps=1e-05, momentum=0.1, affine=True, track_running_stats=True)
      (2): ReLU(inplace=True)
    )
  )
  (local_grouper_list): ModuleList(
    (0): LocalGrouper()
    (1): LocalGrouper()
    (2): LocalGrouper()
    (3): LocalGrouper()
  )
  (pre_blocks_list): ModuleList(
    (0): PreExtraction(
      (transfer): ConvBNReLU1D(
        (act): ReLU(inplace=True)
        (net): Sequential(
          (0): Conv1d(128, 128, kernel_size=(1,), stride=(1,), bias=False)
          (1): BatchNorm1d(128, eps=1e-05, momentum=0.1, affine=True, track_running_stats=True)
          (2): ReLU(inplace=True)
        )
      )
      (operation): Sequential(
        (0): ConvBNReLURes1D(
          (act): ReLU(inplace=True)
          (net1): Sequential(
            (0): Conv1d(128, 128, kernel_size=(1,), stride=(1,), bias=False)
            (1): BatchNorm1d(128, eps=1e-05, momentum=0.1, affine=True, track_running_stats=True)
            (2): ReLU(inplace=True)
          )
          (net2): Sequential(
            (0): Conv1d(128, 128, kernel_size=(1,), stride=(1,), bias=False)
            (1): BatchNorm1d(128, eps=1e-05, momentum=0.1, affine=True, track_running_stats=True)
          )
        )
        (1): ConvBNReLURes1D(
          (act): ReLU(inplace=True)
          (net1): Sequential(
            (0): Conv1d(128, 128, kernel_size=(1,), stride=(1,), bias=False)
            (1): BatchNorm1d(128, eps=1e-05, momentum=0.1, affine=True, track_running_stats=True)
            (2): ReLU(inplace=True)
          )
          (net2): Sequential(
            (0): Conv1d(128, 128, kernel_size=(1,), stride=(1,), bias=False)
            (1): BatchNorm1d(128, eps=1e-05, momentum=0.1, affine=True, track_running_stats=True)
          )
        )
      )
    )
    (1): PreExtraction(
      (transfer): ConvBNReLU1D(
        (act): ReLU(inplace=True)
        (net): Sequential(
          (0): Conv1d(256, 256, kernel_size=(1,), stride=(1,), bias=False)
          (1): BatchNorm1d(256, eps=1e-05, momentum=0.1, affine=True, track_running_stats=True)
          (2): ReLU(inplace=True)
        )
      )
      (operation): Sequential(
        (0): ConvBNReLURes1D(
          (act): ReLU(inplace=True)
          (net1): Sequential(
            (0): Conv1d(256, 256, kernel_size=(1,), stride=(1,), bias=False)
            (1): BatchNorm1d(256, eps=1e-05, momentum=0.1, affine=True, track_running_stats=True)
            (2): ReLU(inplace=True)
          )
          (net2): Sequential(
            (0): Conv1d(256, 256, kernel_size=(1,), stride=(1,), bias=False)
            (1): BatchNorm1d(256, eps=1e-05, momentum=0.1, affine=True, track_running_stats=True)
          )
        )
        (1): ConvBNReLURes1D(
          (act): ReLU(inplace=True)
          (net1): Sequential(
            (0): Conv1d(256, 256, kernel_size=(1,), stride=(1,), bias=False)
            (1): BatchNorm1d(256, eps=1e-05, momentum=0.1, affine=True, track_running_stats=True)
            (2): ReLU(inplace=True)
          )
          (net2): Sequential(
            (0): Conv1d(256, 256, kernel_size=(1,), stride=(1,), bias=False)
            (1): BatchNorm1d(256, eps=1e-05, momentum=0.1, affine=True, track_running_stats=True)
          )
        )
      )
    )
    (2): PreExtraction(
      (transfer): ConvBNReLU1D(
        (act): ReLU(inplace=True)
        (net): Sequential(
          (0): Conv1d(512, 512, kernel_size=(1,), stride=(1,), bias=False)
          (1): BatchNorm1d(512, eps=1e-05, momentum=0.1, affine=True, track_running_stats=True)
          (2): ReLU(inplace=True)
        )
      )
      (operation): Sequential(
        (0): ConvBNReLURes1D(
          (act): ReLU(inplace=True)
          (net1): Sequential(
            (0): Conv1d(512, 512, kernel_size=(1,), stride=(1,), bias=False)
            (1): BatchNorm1d(512, eps=1e-05, momentum=0.1, affine=True, track_running_stats=True)
            (2): ReLU(inplace=True)
          )
          (net2): Sequential(
            (0): Conv1d(512, 512, kernel_size=(1,), stride=(1,), bias=False)
            (1): BatchNorm1d(512, eps=1e-05, momentum=0.1, affine=True, track_running_stats=True)
          )
        )
        (1): ConvBNReLURes1D(
          (act): ReLU(inplace=True)
          (net1): Sequential(
            (0): Conv1d(512, 512, kernel_size=(1,), stride=(1,), bias=False)
            (1): BatchNorm1d(512, eps=1e-05, momentum=0.1, affine=True, track_running_stats=True)
            (2): ReLU(inplace=True)
          )
          (net2): Sequential(
            (0): Conv1d(512, 512, kernel_size=(1,), stride=(1,), bias=False)
            (1): BatchNorm1d(512, eps=1e-05, momentum=0.1, affine=True, track_running_stats=True)
          )
        )
      )
    )
    (3): PreExtraction(
      (transfer): ConvBNReLU1D(
        (act): ReLU(inplace=True)
        (net): Sequential(
          (0): Conv1d(1024, 1024, kernel_size=(1,), stride=(1,), bias=False)
          (1): BatchNorm1d(1024, eps=1e-05, momentum=0.1, affine=True, track_running_stats=True)
          (2): ReLU(inplace=True)
        )
      )
      (operation): Sequential(
        (0): ConvBNReLURes1D(
          (act): ReLU(inplace=True)
          (net1): Sequential(
            (0): Conv1d(1024, 1024, kernel_size=(1,), stride=(1,), bias=False)
            (1): BatchNorm1d(1024, eps=1e-05, momentum=0.1, affine=True, track_running_stats=True)
            (2): ReLU(inplace=True)
          )
          (net2): Sequential(
            (0): Conv1d(1024, 1024, kernel_size=(1,), stride=(1,), bias=False)
            (1): BatchNorm1d(1024, eps=1e-05, momentum=0.1, affine=True, track_running_stats=True)
          )
        )
        (1): ConvBNReLURes1D(
          (act): ReLU(inplace=True)
          (net1): Sequential(
            (0): Conv1d(1024, 1024, kernel_size=(1,), stride=(1,), bias=False)
            (1): BatchNorm1d(1024, eps=1e-05, momentum=0.1, affine=True, track_running_stats=True)
            (2): ReLU(inplace=True)
          )
          (net2): Sequential(
            (0): Conv1d(1024, 1024, kernel_size=(1,), stride=(1,), bias=False)
            (1): BatchNorm1d(1024, eps=1e-05, momentum=0.1, affine=True, track_running_stats=True)
          )
        )
      )
    )
  )
  (pos_blocks_list): ModuleList(
    (0): PosExtraction(
      (operation): Sequential(
        (0): ConvBNReLURes1D(
          (act): ReLU(inplace=True)
          (net1): Sequential(
            (0): Conv1d(128, 128, kernel_size=(1,), stride=(1,), bias=False)
            (1): BatchNorm1d(128, eps=1e-05, momentum=0.1, affine=True, track_running_stats=True)
            (2): ReLU(inplace=True)
          )
          (net2): Sequential(
            (0): Conv1d(128, 128, kernel_size=(1,), stride=(1,), bias=False)
            (1): BatchNorm1d(128, eps=1e-05, momentum=0.1, affine=True, track_running_stats=True)
          )
        )
        (1): ConvBNReLURes1D(
          (act): ReLU(inplace=True)
          (net1): Sequential(
            (0): Conv1d(128, 128, kernel_size=(1,), stride=(1,), bias=False)
            (1): BatchNorm1d(128, eps=1e-05, momentum=0.1, affine=True, track_running_stats=True)
            (2): ReLU(inplace=True)
          )
          (net2): Sequential(
            (0): Conv1d(128, 128, kernel_size=(1,), stride=(1,), bias=False)
            (1): BatchNorm1d(128, eps=1e-05, momentum=0.1, affine=True, track_running_stats=True)
          )
        )
      )
    )
    (1): PosExtraction(
      (operation): Sequential(
        (0): ConvBNReLURes1D(
          (act): ReLU(inplace=True)
          (net1): Sequential(
            (0): Conv1d(256, 256, kernel_size=(1,), stride=(1,), bias=False)
            (1): BatchNorm1d(256, eps=1e-05, momentum=0.1, affine=True, track_running_stats=True)
            (2): ReLU(inplace=True)
          )
          (net2): Sequential(
            (0): Conv1d(256, 256, kernel_size=(1,), stride=(1,), bias=False)
            (1): BatchNorm1d(256, eps=1e-05, momentum=0.1, affine=True, track_running_stats=True)
          )
        )
        (1): ConvBNReLURes1D(
          (act): ReLU(inplace=True)
          (net1): Sequential(
            (0): Conv1d(256, 256, kernel_size=(1,), stride=(1,), bias=False)
            (1): BatchNorm1d(256, eps=1e-05, momentum=0.1, affine=True, track_running_stats=True)
            (2): ReLU(inplace=True)
          )
          (net2): Sequential(
            (0): Conv1d(256, 256, kernel_size=(1,), stride=(1,), bias=False)
            (1): BatchNorm1d(256, eps=1e-05, momentum=0.1, affine=True, track_running_stats=True)
          )
        )
      )
    )
    (2): PosExtraction(
      (operation): Sequential(
        (0): ConvBNReLURes1D(
          (act): ReLU(inplace=True)
          (net1): Sequential(
            (0): Conv1d(512, 512, kernel_size=(1,), stride=(1,), bias=False)
            (1): BatchNorm1d(512, eps=1e-05, momentum=0.1, affine=True, track_running_stats=True)
            (2): ReLU(inplace=True)
          )
          (net2): Sequential(
            (0): Conv1d(512, 512, kernel_size=(1,), stride=(1,), bias=False)
            (1): BatchNorm1d(512, eps=1e-05, momentum=0.1, affine=True, track_running_stats=True)
          )
        )
        (1): ConvBNReLURes1D(
          (act): ReLU(inplace=True)
          (net1): Sequential(
            (0): Conv1d(512, 512, kernel_size=(1,), stride=(1,), bias=False)
            (1): BatchNorm1d(512, eps=1e-05, momentum=0.1, affine=True, track_running_stats=True)
            (2): ReLU(inplace=True)
          )
          (net2): Sequential(
            (0): Conv1d(512, 512, kernel_size=(1,), stride=(1,), bias=False)
            (1): BatchNorm1d(512, eps=1e-05, momentum=0.1, affine=True, track_running_stats=True)
          )
        )
      )
    )
    (3): PosExtraction(
      (operation): Sequential(
        (0): ConvBNReLURes1D(
          (act): ReLU(inplace=True)
          (net1): Sequential(
            (0): Conv1d(1024, 1024, kernel_size=(1,), stride=(1,), bias=False)
            (1): BatchNorm1d(1024, eps=1e-05, momentum=0.1, affine=True, track_running_stats=True)
            (2): ReLU(inplace=True)
          )
          (net2): Sequential(
            (0): Conv1d(1024, 1024, kernel_size=(1,), stride=(1,), bias=False)
            (1): BatchNorm1d(1024, eps=1e-05, momentum=0.1, affine=True, track_running_stats=True)
          )
        )
        (1): ConvBNReLURes1D(
          (act): ReLU(inplace=True)
          (net1): Sequential(
            (0): Conv1d(1024, 1024, kernel_size=(1,), stride=(1,), bias=False)
            (1): BatchNorm1d(1024, eps=1e-05, momentum=0.1, affine=True, track_running_stats=True)
            (2): ReLU(inplace=True)
          )
          (net2): Sequential(
            (0): Conv1d(1024, 1024, kernel_size=(1,), stride=(1,), bias=False)
            (1): BatchNorm1d(1024, eps=1e-05, momentum=0.1, affine=True, track_running_stats=True)
          )
        )
      )
    )
  )
  (act): ReLU(inplace=True)
  (classifier): Sequential(
    (0): Linear(in_features=1024, out_features=512, bias=True)
    (1): BatchNorm1d(512, eps=1e-05, momentum=0.1, affine=True, track_running_stats=True)
    (2): ReLU(inplace=True)
    (3): Dropout(p=0.5, inplace=False)
    (4): Linear(in_features=512, out_features=256, bias=True)
    (5): BatchNorm1d(256, eps=1e-05, momentum=0.1, affine=True, track_running_stats=True)
    (6): ReLU(inplace=True)
    (7): Dropout(p=0.5, inplace=False)
    (8): Linear(in_features=256, out_features=40, bias=True)
  )
)


+++++++  Weights for: EMBEDDING LAYER  +++++++


Conv1d(3, 64, kernel_size=(1,), stride=(1,), bias=False) 
Max Weight: 1.2296496629714966 
Min Weight:  -1.6499935388565063 


+++++++  Weights for: PRE-EXTRACTION CONV LAYERS  +++++++


Conv1d(128, 128, kernel_size=(1,), stride=(1,), bias=False) 
Max Weight:  0.7491880059242249 
Min Weight:  tensor(-0.7316) 
…
